model_ann.tflite (tflite, 12752 bytes, 6 tensors)

arith.constant f4 [6, 32]
000000 1c 41 19 3f 8f 68 8d be f5 11 5e 3f c1 1a 1d 3f
       0.59864974 -0.27618834 0.8674615 0.6136895
000010 23 d2 bc 3f 95 8b 15 be c7 8b 71 bf 6e 39 71 be
       1.4751629 -0.14604028 -0.9435391 -0.23557064
000020 b7 b3 1b 40 05 dd 84 3f 40 bd 80 3f 47 e5 0b 3f
       2.432844 1.037995 1.0057755 0.54646724
000030 c8 6c 9b bf 25 55 e6 bf 80 ef ee bd 8f 3f 30 3e
       -1.2142572 -1.7994734 -0.11666775 0.17211746
000040 25 f2 b6 bf 39 39 28 be 30 60 b9 be 39 a8 62 bf
       -1.4292647 -0.16428079 -0.36206198 -0.8853794
000050 c8 82 66 bd f5 d4 6e bf d0 a6 8c 3f 3f 37 a4 be
       -0.056277066 -0.93293697 1.0988407 -0.320734
000060 82 64 16 3e c2 d4 cc bf b1 a9 4a 3f 7c 75 8d bf
       0.14686778 -1.6002429 0.7916518 -1.1051478
000070 3a 98 00 3e ee 7a a4 bf fe c4 6d 3f 59 86 05 3f
       0.1255807 -1.2850015 0.9287871 0.52158123
000080 c5 de e3 bf 3c 43 1d c0 54 f9 8b be bd 10 9c bf
       -1.7802359 -2.4572287 -0.2733866 -1.2192608
000090 47 bd f5 be 88 da 1d 3d 9d ec cd 3d 05 6e 2e be
       -0.4799597 0.038538486 0.10054896 -0.17034157
0000a0 63 e3 8e 3e 99 c2 09 be df 63 92 3d 86 f1 10 c0
       0.27907857 -0.1345314 0.07147955 -2.2647414
0000b0 0c 8f 2e 3f 9c 64 29 3f 11 40 b2 3e 38 68 b2 3e
       0.6818702 0.6616914 0.34814504 0.34845138
0000c0 ec d6 fd 3e 74 d7 fd bd 04 b3 6d 3e eb 9c d8 be
       0.49578035 -0.1239461 0.2321282 -0.4230722
0000d0 38 45 d5 bd 97 65 07 3e e9 5f 25 bd 01 da 27 bf
       -0.10413593 0.13222347 -0.04037467 -0.6556702
0000e0 3b 1c 14 c0 9f e9 45 3f 04 33 02 be 48 7a 4b 3f
       -2.314223 0.773096 -0.12714773 0.7948346
0000f0 91 16 34 be 04 d3 d5 3e 0e 46 69 bb ea 9f 17 3d
       -0.17586733 0.41762555 -0.0035594734 0.03701774
000100 26 15 61 3e b2 f1 4e bc b2 1d 48 3e 96 d2 e7 3e
       0.21980724 -0.012630867 0.19542578 0.45277852
000110 f7 11 a5 be 5e 5c 2b be 08 ee 88 3e 9b ce 12 3d
       -0.3224027 -0.16734454 0.26744103 0.035841566
000120 ee ae 29 c0 f3 b6 43 3e 73 65 50 bd 0b 47 41 3d
       -2.6513019 0.19112758 -0.050878 0.047186892
000130 b2 bd b2 3e ba 38 61 be 9a 32 ae bd 85 8e e9 3c
       0.3491035 -0.21994296 -0.08505745 0.028510341
000140 66 f4 41 be 88 d4 95 bd a1 34 05 be 7b 46 77 be
       -0.18940887 -0.07315928 -0.13008358 -0.2414798
000150 08 f7 a8 bd 16 98 5d bd 41 5d ac 3e 13 9a 0f 3e
       -0.082502425 -0.05410012 0.33664897 0.14023618
000160 e6 cc 82 3e 4c 0d 12 bd 98 a3 20 3e 9c 5b 37 c0
       0.2554695 -0.035657212 0.15687406 -2.8649664
000170 08 9e a2 bd 48 89 45 3e 98 13 c2 bd 09 66 09 3f
       -0.07940298 0.1929065 -0.094763935 0.5367132
000180 08 2b 07 bf aa e9 af be 06 4c 27 c0 ff a2 24 3e
       -0.52800035 -0.3435796 -2.614015 0.16077803
000190 23 a7 93 bf 99 2d 2a be 0f 65 d5 3e f4 70 78 be
       -1.1535381 -0.16618957 0.41678664 -0.24261838
0001a0 d8 8b 3e bf db 34 43 bf 66 4a a3 be e0 de 93 3e
       -0.74432135 -0.76252526 -0.318927 0.28880978
0001b0 69 73 1f 3f 95 60 09 bb c8 98 4b 3e f0 b8 8a 3e
       0.62285477 -0.0020962108 0.198825 0.2709422
0001c0 d0 80 2b 3e 00 03 6f bb c2 df 9e be c3 2e 13 3e
       0.16748357 -0.0036470294 -0.3103009 0.14373307
0001d0 3c cc f0 3d 9c cc 0a 3f 09 2e 54 c0 89 d1 a3 be
       0.117577046 0.5421846 -3.3153098 -0.319958
0001e0 4a 71 8f be c3 39 eb 3e 81 33 fa bf 64 1b 00 3f
       -0.2801612 0.45942506 -1.9546968 0.50041795
0001f0 a8 fa 98 be 45 7f 4e 3d 6a c2 72 bf 93 0e 40 c0
       -0.29878736 0.050414342 -0.948279 -3.0008895
000200 4d 58 36 3e f4 2d 13 be cc 96 50 be 78 1e 8e 3d
       0.17807122 -0.14372998 -0.20370024 0.06939405
000210 d1 2d 48 c0 a7 5b 5c be 50 5f 06 be 9c 65 31 3e
       -3.1277964 -0.21519338 -0.13122296 0.17323917
000220 e8 35 59 bf f0 b3 2a c0 80 35 10 c0 7d 70 b0 3e
       -0.8484788 -2.6672325 -2.2532654 0.34460822
000230 b7 e3 dc 3e d4 a8 2b 3e c8 d1 98 be 17 58 f8 bb
       0.43142483 0.16763622 -0.2984755 -0.0075788605
000240 8c ae 20 be 1e a4 23 3e 43 3b 83 3e 55 07 a5 3d
       -0.15691584 0.15980574 0.2563115 0.08058039
000250 c6 a0 37 3e 76 2a fd 3e 2c ec 94 be c7 93 27 3d
       0.17932424 0.49446458 -0.29086435 0.040912416
000260 89 4f 3f bc d5 d5 ef 3d 06 b6 eb bd 0d 6b 19 be
       -0.0116766775 0.11710707 -0.115093276 -0.14982243
000270 b4 a6 f0 3d 95 f2 86 3e 52 00 0b c0 00 99 e3 bd
       0.11750546 0.2635695 -2.1718946 -0.11113167
000280 42 eb 33 c0 3f 8f 17 bf a7 b3 f4 be c4 68 10 c0
       -2.811234 -0.5920295 -0.47793314 -2.2563944
000290 1e fa 58 bf 5c 9f a1 be 95 f1 81 bc 4c ce a8 3d
       -0.8475665 -0.31566894 -0.015862266 0.08242473
0002a0 b6 9e 9f be 6d 52 77 be 0c 45 d7 bc 9c 16 e9 be
       -0.31175774 -0.24152537 -0.026278041 -0.45525062
0002b0 17 a1 11 3f 5e a3 97 3e 62 0d c5 be 05 7b 82 be
       0.5688643 0.29616827 -0.38486773 -0.2548448
0002c0 ee 10 b0 3e 9f a5 93 3e fc 7a 63 be 4d 3a 8c 3d
       0.34387916 0.28837296 -0.22214884 0.068470575
0002d0 57 32 8b 3e 8b ed 9f 3e 6e ef ea bf a2 ec 16 bf
       0.27186844 0.31235918 -1.8354318 -0.58954823
0002e0 0d 78 9a be e1 fc f6 3e 76 17 81 bf dc ff 41 3f
       -0.30169716 0.48239806 -1.0085285 0.75781035
0002f0 eb 33 a2 3e 43 e7 11 3f 53 74 ba be 51 95 83 bf
       0.31680235 0.569935 -0.36416873 -1.0279943

arith.constant1 f4 [32, 64]
000000 a5 1d 4e bf 8f 81 66 3e 92 50 83 3f a8 40 ed 3d
       -0.80513984 0.2251036 1.0258963 0.11584598
000010 5f 59 5a 3f 4e a5 27 be e7 ce 05 bf 5d 22 a2 3e
       0.8529262 -0.16371652 -0.5226883 0.31666842
000020 2f 1a ed 3e 7c ad 4f 3f 5a 57 5d 3f 8b db 5c 3f
       0.4630904 0.8112409 0.8646141 0.86272496
000030 10 3a ff be ed c3 8c 3f 89 68 90 3d 8c 42 e2 be
       -0.49848986 1.0997292 0.070511885 -0.44191396
000040 ad 30 d3 3d ab 14 0a 3e 8b e9 fa 3e e4 ad 2d 3f
       0.103120185 0.13484447 0.49006304 0.6784346
000050 79 b2 2d 3f 28 0d 86 3d 81 4f 53 3e 78 3a e6 3d
       0.6785045 0.06545478 0.20635797 0.11241621
000060 be 8c 4f 3f 73 f9 88 be 3e eb 8c 3f 4c 94 76 3f
       0.8107413 -0.26752815 1.100929 0.96320033
000070 a8 48 06 3e ba 97 d4 3e cd b5 f9 bd 86 e6 2d 3f
       0.13113654 0.41522008 -0.12192879 0.67929876
000080 06 fb 9c 3f 92 7b b9 be 0f 2f 20 bf 8f 68 a5 be
       1.2264106 -0.3622709 -0.62571806 -0.32306334
000090 1f 8a f7 3e 4a 0d 4a 3f c4 6b a7 3e a9 d4 16 3f
       0.48347566 0.7892653 0.32699406 0.58918244
0000a0 1a d0 19 3f 10 9c cc 3d 8d a6 18 3f e7 e4 30 3e
       0.6008316 0.09990704 0.59629136 0.1727482
0000b0 06 f2 4e bd 6b d5 05 bf 27 7b 53 3f e4 92 15 3e
       -0.05052378 -0.52278775 0.8260979 0.14606816
0000c0 b0 67 34 be ec 88 71 3f 54 03 1a 3f 15 2e 1b 3f
       -0.17617679 0.9434955 0.6016133 0.6061719
0000d0 31 55 7f 3f 29 fb 99 be 0c 61 35 3f ff 4b 7d 3f
       0.99739367 -0.30074432 0.70851207 0.98944086
0000e0 fb 68 d5 3f 13 43 26 3e ab 47 9a 3f 3e 44 c5 be
       1.6672662 0.16236524 1.2053121 -0.38528627
0000f0 67 00 11 bf 04 24 71 3d fc 4e 67 3f 0d 78 a3 3f
       -0.5664124 0.058872238 0.90354896 1.2771012
000100 63 74 e6 be a9 97 a6 3e c1 f9 8d 3e 21 5c 3e bd
       -0.4501067 0.32537583 0.2772961 -0.04647458
000110 01 85 5b 3f 50 c4 71 bd cc 25 c2 be 44 75 c6 bd
       0.8574982 -0.05902511 -0.37919462 -0.096903354
000120 54 1c 2f be ba c8 2d 3f 94 60 38 3f ca b5 82 be
       -0.1710065 0.6788441 0.72022367 -0.2552932
000130 6e 87 c6 be 22 f9 ab 3e ac 1c 6d 3e 39 d4 02 be
       -0.387752 0.3358851 0.23155469 -0.12776269
000140 e7 1a e8 3d c4 07 24 bd 68 ef 93 be 17 57 7b 3e
       0.11333256 -0.04004647 -0.2889359 0.24544941
000150 d8 ac d0 3e e8 14 9d bd b8 c8 5a 3e 90 6a 00 3d
       0.4075687 -0.07670003 0.2136563 0.031351626
000160 85 d7 87 3e c7 43 e7 be 8e 9d 85 3e 1e 11 80 3e
       0.26531616 -0.45168898 0.26096767 0.2501306
000170 8e 84 4c 3e 78 3e ac 3e a8 1e 21 3e 8a b7 62 3f
       0.1997244 0.3364141 0.1573435 0.8856131
000180 95 60 f4 3d 07 94 93 bd 0c 57 f1 3b d6 95 be be
       0.11932484 -0.07205968 0.007365113 -0.3722369
000190 95 ce 93 3b 89 a5 fe 3e ac 06 b7 bd 6f 62 26 3c
       0.0045107105 0.49735668 -0.089368194 0.010155304
0001a0 80 db c5 3e 60 73 e0 3c 5e 12 ce 3e 61 41 32 3e
       0.38644028 0.027398765 0.40248388 0.17407753
0001b0 b0 86 19 3e 82 b5 85 bd e4 6e bc be 28 44 ec bd
       0.14992785 -0.065287605 -0.36803353 -0.11536437
0001c0 70 a9 be 3d b4 27 da 3e ff 2a 05 3f 03 45 17 3e
       0.093096614 0.42608416 0.5201873 0.1477242
0001d0 cf 57 8f 3d 52 b5 e9 3d 76 26 06 3f f2 15 9b 3e
       0.0699917 0.11411537 0.52402437 0.3029018
0001e0 1a 28 39 3e 54 ec ce bd 0f b7 a1 3f 7d c5 25 be
       0.18081704 -0.1010367 1.263399 -0.16188617
0001f0 58 07 b5 bd 5e e8 63 3e 50 31 e1 3e 3c b8 43 3e
       -0.08839291 0.2225661 0.43982935 0.19113249
000200 ba 2e 7d bf 21 e0 25 3d 1c 05 33 3f 7c 92 5f be
       -0.98899424 0.04049695 0.6992967 -0.21833223
000210 f9 16 eb 3e 90 0c ce be dd 5a ba be 99 d4 9e 3c
       0.45915964 -0.4024396 -0.36397448 0.019388484
000220 fa fb b3 3e dc a9 51 3f 52 23 cb 3e c0 f8 b3 3e
       0.3515318 0.8189981 0.39675385 0.3515072
000230 97 36 3e bf a8 de d5 3e af 86 9e 3d dc 87 8c be
       -0.7430205 0.41771436 0.077405326 -0.27447402
000240 b9 b6 17 be b1 fa 9f be ac d1 9f 3e cb 09 59 3e
       -0.14815797 -0.3124595 0.31214654 0.21195142
000250 7e a7 81 3e 70 db 76 be 66 d1 a9 3e 04 98 5e 3e
       0.253231 -0.24107146 0.3316757 0.21737677
000260 0e 81 26 3e 82 5e f0 be 78 6d 0b 3f e8 80 06 3f
       0.16260168 -0.46947104 0.5446391 0.52540445
000270 ac 38 64 3e ae 1d eb 3e cf 4f 3b 3e ed 19 0e 3f
       0.22287244 0.4592108 0.18292163 0.5550831
000280 d9 e3 a6 3f 0f 23 94 be 79 7b 5d be 99 17 0c bf
       1.3038284 -0.28932998 -0.21629132 -0.5472351
000290 ce e6 ec 3e dc 75 c5 3e 19 5c ee 3e a5 d4 0a 3f
       0.4626984 0.38566482 0.4655464 0.5423072
0002a0 c0 a7 63 3e 60 1c f1 bd 9f d6 8e 3e ca bb 46 be
       0.2223196 -0.1177299 0.27898118 -0.19407573
0002b0 a8 91 40 be 9d 8a 75 be 74 cf 29 3f e0 bf a1 3d
       -0.18805563 -0.23978658 0.66332173 0.078979254
0002c0 54 2c 27 be 29 ed f4 3e b3 6f b9 3e 74 4b 47 3d
       -0.16325504 0.4783719 0.36218032 0.048655942
0002d0 07 e9 51 3f f0 49 df be 38 10 bd 3e 42 a0 7c 3f
       0.81996197 -0.43611097 0.36926436 0.98682034
0002e0 b5 79 9b 3f 26 5e 2c be 5d a0 8b 3f 7f 88 68 be
       1.2146517 -0.1683279 1.0908314 -0.22708319
0002f0 69 68 91 be 08 3a f5 3d 42 9f 4d 3e 45 37 8f 3f
       -0.2839997 0.11973959 0.20080283 1.1188742
000300 12 96 fb be 7e 48 da 3d 35 98 83 3f c4 cd 04 be
       -0.49137932 0.10658358 1.0280825 -0.12969118
000310 d3 ab 41 3f ce 3d 57 be 09 0d 01 bf 64 3a 96 3e
       0.7565281 -0.2101967 -0.50410515 0.29341424
000320 1c 1f e2 3e 0a e5 33 3f 2a 86 ff 3e 91 07 7a 3e
       0.4416436 0.7027136 0.49907047 0.24416949
000330 8e e4 c2 be c8 01 7f 3f 38 98 fa bd bc ba b1 be
       -0.38064998 0.9961209 -0.12236065 -0.3471278
000340 83 9b 67 3b 1a f1 11 3e 49 9c f6 3b d6 d5 bd 3e
       0.0035340495 0.14252129 0.007525955 0.37077206
000350 98 da 11 3f 78 68 e0 3d c7 79 04 3f 60 bc aa 3d
       0.5697417 0.10957426 0.5174832 0.08336711
000360 be ec 10 3f 12 26 99 be 14 a5 30 3f 4a 8f 4e 3f
       0.5661124 -0.29911858 0.6900189 0.8068739
000370 0a 6b 88 3e 1f a3 07 3f db 72 48 be d6 0b 1a 3f
       0.26644164 0.5298328 -0.19575064 0.6017431
000380 18 58 47 3f 0d 05 07 bf 7e 98 c4 be 8d 57 9b be
       0.77868795 -0.5274208 -0.38397592 -0.30340233
000390 81 80 88 bd 28 9d 16 3f af 76 b4 3e c0 3f 89 3e
       -0.06665135 0.5883355 0.35246798 0.2680645
0003a0 99 3c d3 3e 31 0a 80 3e c4 74 eb 3e 16 a0 2b 3e
       0.4125717 0.25007775 0.45987523 0.16760287
0003b0 ad cd b8 be e1 7b 93 be c8 f8 ce 3e f0 53 1c bd
       -0.36094418 -0.2880545 0.4042418 -0.038165987
0003c0 98 81 7c 3e b7 02 a3 3f cc 9f 1b 3f a7 b7 b7 3e
       0.24658811 1.2735204 0.60790706 0.35882303
0003d0 b6 21 8c 3f 0a eb aa bd cd 0e 1b 3f 49 a7 8a 3f
       1.0947788 -0.083456114 0.6056946 1.0832301
0003e0 97 4c bb 3f 19 14 47 be a4 f3 71 3f d5 2d 11 3c
       1.4632748 -0.1944126 0.9451239 0.008861025
0003f0 2c 15 d8 be 3f 8a 16 3e 45 41 13 3f f6 0e 99 3f
       -0.42203653 0.14701174 0.5752147 1.1957691

arith.constant2 f4 [6]
000000 59 b0 0a be 6b e4 76 be 30 5c 66 3e 7d fd 02 bd
       -0.13543834 -0.24110572 0.22496104 -0.031980027
000010 c1 fc 0e 3e f6 b8 aa bd
       0.13963605 -0.0833606

sequential_1/dense_1_2/BiasAdd/ReadVariableOp f4 [32]
000000 9e d5 14 3f 10 4c e6 3e be c6 82 3e e2 9e a0 3e
       0.58138454 0.44979906 0.25542253 0.31371218
000010 4d dc f7 3d 39 78 ba bc 46 c2 4c 3e ec 38 c3 bc
       0.12102566 -0.022762405 0.19995984 -0.023830853
000020 5d ce 1f be b0 24 1c 3e 7b df 72 3d fa 2a 3d 3e
       -0.15606065 0.1524837 0.05929516 0.18473426
000030 d2 c8 2f 3e 6e c2 48 3e b5 05 16 bc 7c 13 c3 bc
       0.1716645 0.19605419 -0.009156634 -0.023813002
000040 70 e8 05 3e 00 00 00 00 10 e0 8d bc e5 45 90 3e
       0.13076949 0.0 -0.017318755 0.28178325
000050 00 00 00 00 f8 b9 81 3e 7d 31 bd 3e 68 2b 96 3e
       0.0 0.25337195 0.3695182 0.2932999
000060 d6 d0 c9 3e 49 90 81 3e 4e 8b 69 3e da 2c 06 be
       0.39417142 0.25305393 0.22807047 -0.13103047
000070 00 00 00 00 ae 84 85 3e 8a a0 b5 3d e3 00 8e 3e
       0.0 0.2607779 0.08868511 0.27735052

sequential_1/dense_1/BiasAdd/ReadVariableOp f4 [64]
000000 83 2a 9f 3b c9 b4 bd 3e a5 e9 a7 3e 83 85 c0 bc
       0.0048573627 0.3705199 0.32795444 -0.023501163
000010 20 83 c2 3e e6 33 1e 3e 7c 1d a4 bc 4c 5d 28 3d
       0.37990665 0.15449485 -0.02003359 0.0411046
000020 fa d4 15 3e c6 ab c1 3e 75 2f ca 3e 35 36 ca 3d
       0.14632025 0.37826365 0.39489332 0.098736204
000030 f7 f3 4f 3d 33 73 c8 3e 69 0e c9 3d 7d 8b 26 3e
       0.050769772 0.3915039 0.09817202 0.16264148
000040 92 88 1e 3e c1 9a 31 3e 16 8e 92 3d 95 72 69 3e
       0.15481785 0.1734419 0.07156007 0.22797616
000050 99 ac 6c 3e 00 00 00 00 7b 25 20 3f 00 00 00 00
       0.23112716 0.0 0.6255719 0.0
000060 2c b1 91 3e 7f 5e 4f bd f8 e7 8b 3e 1d 22 79 3e
       0.28455484 -0.050627228 0.27325416 0.2432942
000070 28 9b b0 3e db e4 2f 3f 28 7a 65 3e 63 09 d7 3e
       0.34493375 0.6870858 0.2240988 0.4199935
000080 85 79 6b 3e bb 20 1d 3e 29 12 57 3c cd 0a 16 3d
       0.22995575 0.15344517 0.013126888 0.036631394
000090 e8 b8 81 3d af fc a5 3e 6a 68 02 3e 54 b1 24 3e
       0.06334096 0.32419345 0.12735143 0.1608327
0000a0 bd e0 1e 3f 6c 26 9d bc ee b2 a3 3e 23 c4 42 3e
       0.62061673 -0.01918336 0.3197245 0.19020133
0000b0 23 1d e7 3d 73 3c 44 3d 93 39 0a 3e 00 00 00 00
       0.11284854 0.04790921 0.13498525 0.0
0000c0 00 00 00 00 02 a3 e4 3e a9 5c 94 3e f7 08 a8 3e
       0.0 0.44655615 0.28976944 0.3281934
0000d0 f6 15 82 3e d0 c6 03 3e f1 9e 12 3f fe 2b 9b 3e
       0.2540738 0.1286881 0.57273775 0.30307
0000e0 79 e1 b5 3e bb 8e 91 bc a5 ed 02 3f 66 96 a8 bc
       0.35523584 -0.017768255 0.51143867 -0.020579528
0000f0 c6 dc 12 3d 30 fc 0b 3f c8 68 b6 3e d9 0c a5 3e
       0.035855077 0.5468168 0.35626817 0.32236364

sequential_1/dense_1/MatMul f4 [64, 5]
000000 af 40 38 3d a4 ec 91 3d 25 cc b9 3d 3a 62 63 3c
       0.044983562 0.07125214 0.090721406 0.0138783995
000010 55 70 fc 3f 2c 98 3c 3d 4e e5 d3 3e 87 5b c3 3e
       1.9721781 0.04604356 0.41385883 0.38155767
000020 0d 5d a1 3e 14 e5 b0 3f 30 da b6 bd c7 ab 2b 3e
       0.31516305 1.3819909 -0.08928335 0.16764747
000030 56 9d 3d 3e 7b 3b b0 bc 91 76 d4 bf 53 6e 7a be
       0.1851705 -0.021512737 -1.6598684 -0.24456148
000040 12 28 87 bb c3 72 5b be bb 7e cb 3c e7 15 05 be
       -0.00412465 -0.21430497 0.024840703 -0.12996636
000050 d2 5b 1a 3e 21 fa f4 bd 68 01 53 3e 2e e2 3e 3e
       0.15074089 -0.11961771 0.20606005 0.18640968
000060 e4 de be bf 1b a4 93 3e e1 c7 2b bd fb 06 58 3c
       -1.4911771 0.2883614 -0.041938666 0.013185258
000070 26 4c 5f 3d b8 6c 0a 40 cb 53 14 bd a0 72 a8 3d
       0.05451598 2.1628857 -0.036212724 0.08224988
000080 30 a0 61 3e dc 87 02 3e cf 76 04 40 4c cf 3e be
       0.22033763 0.12747139 2.0697515 -0.18633765
000090 68 46 24 be 6d 90 70 3c 1c c4 85 3e 4a 71 86 bf
       -0.16042483 0.014682871 0.26126182 -1.0503323
0000a0 14 27 25 3d 4c 75 d6 3d 94 e1 25 3e 37 93 d2 3c
       0.04032047 0.10471591 0.16199332 0.025704963
0000b0 ed e1 c0 bf 75 44 79 bd 07 ec 08 be 2a 8e 90 3e
       -1.5068947 -0.0608563 -0.13371287 0.28233463
0000c0 32 a2 3a 3e 03 de cd bf 17 22 9e 3e 06 07 02 be
       0.18225935 -1.6083378 0.30885383 -0.12697992
0000d0 59 8a 54 3c 91 8f a6 bc 55 f5 af bf 44 2a 9e bb
       0.012972438 -0.02033213 -1.3746744 -0.004826816
0000e0 c3 ec 10 3e d2 f6 08 3e 4f 23 5e bb 26 db df bf
       0.14152817 0.13375404 -0.0033895557 -1.7488754
0000f0 59 7e cd 3d 91 33 10 3e bd f0 06 3e d5 98 ad bd
       0.100338645 0.14082171 0.13177772 -0.08476416
000100 d5 ab ff 3f 75 ee c5 3d b8 2d 09 3e f1 ce 0a be
       1.9974314 0.09664623 0.13396347 -0.13555504
000110 a2 05 b4 3c 36 02 b9 bf aa 22 53 3e aa 5f 7d 3e
       0.021975342 -1.44538 0.20618692 0.24743524
000120 54 99 b7 3d be 91 6e 3e 96 38 92 bf 5f 17 d4 3d
       0.08964792 0.23297784 -1.1423519 0.1035602
000130 31 97 53 bc 23 27 0d bd fa 55 28 3e 96 e2 07 40
       -0.012914465 -0.03446115 0.16439047 2.1232047
000140 4d bb c6 be 6c 35 17 3e 9e 82 25 3d 8b 05 42 3c
       -0.38814774 0.14766473 0.04040777 0.011842142
000150 f6 b9 b1 3f 53 04 90 bd 19 4d 3c bd 9d 5b 37 bb
       1.3884876 -0.07032075 -0.045971964 -0.002797819
000160 a4 59 a6 3e 58 64 d5 3f 9c a2 76 3e bc 81 5f 3d
       0.32490265 1.6671247 0.24085468 0.054567084
000170 61 59 2d 3e 8a 14 aa 3d 30 e3 d6 bf b4 89 35 3e
       0.16928627 0.08304699 -1.6788082 0.17728311
000180 f1 5c 83 3e 33 bc 37 be 9e 6d 93 3e c0 6a b6 bf
       0.25656846 -0.17942886 0.2879457 -1.4251328
000190 bc 92 79 3d 6d e7 2d 3d 3b e1 03 be ac 5b 71 3d
       0.060930952 0.042457033 -0.12878887 0.058925316
0001a0 1d 24 7d bf 3c 5f 61 be 8a b2 74 be b0 c8 6e 3d
       -0.9888323 -0.22008985 -0.23896232 0.05829686
0001b0 e8 f0 18 3d 0c 7e 79 be 86 9e 31 be df 61 87 bd
       0.03733912 -0.2436449 -0.17345628 -0.06610464
0001c0 4d f4 59 3e eb 24 be bd d6 98 d4 bd 7d c9 1e be
       0.212846 -0.09284385 -0.10380714 -0.15506549
0001d0 05 db 0f be 30 32 bb 3c d8 4c 10 be e8 81 4c bd
       -0.14048393 0.02285108 -0.14091814 -0.049928576
0001e0 c1 d2 7e bd 16 88 e0 ba ce 8b 9b 3e 2c 9c 96 3d
       -0.06221271 -0.00171304 0.303801 0.07354006
0001f0 9c d2 c0 bf c7 3c 28 3e 91 7c 56 3d 53 16 4d 3e
       -1.5064273 0.16429435 0.05236489 0.20028047
000200 0d 9f 19 3e 03 e8 c8 3f e4 65 80 3e 9f 2a ea bd
       0.1500208 1.5695804 0.25077736 -0.114339106
000210 5a 90 dc bc 92 a2 c3 3d 83 74 e2 bf 93 ac 77 bc
       -0.026924301 0.09552492 -1.7691807 -0.0151168285
000220 9f 8a 0c bc 1d d1 e3 3d e1 a4 94 3e 99 0e f0 bf
       -0.008577972 0.111238696 0.29032043 -1.8754455
000230 e6 d2 20 bc 4e 4e a0 3e e1 93 2b 3e 4d c7 fe 3c
       -0.009815907 0.31309742 0.1675563 0.031100893
000240 67 de 80 bf 09 ea 50 3e 18 1c b8 3d 3f 65 9d be
       -1.0067872 0.20401777 0.089897335 -0.30741307
000250 0b ea 33 be 62 d9 13 bf c2 3d 29 bd 0b a5 c3 3e
       -0.17569749 -0.57753575 -0.041318662 0.38211855
000260 24 a3 3e 3e 38 b7 aa 3e b4 8b c0 3f e4 7e 3f be
       0.1861692 0.3334291 1.5042634 -0.18700749
000270 90 ee 59 3e 57 d8 c0 bd 6a 53 00 3c 77 63 88 bf
       0.2128241 -0.094162636 0.007832387 -1.0655354
000280 20 22 e0 3c 41 a5 4c 3d fc c7 35 3d ca 97 05 3c
       0.027360022 0.049962286 0.044380173 0.008153865
000290 14 68 d6 bf c6 c1 29 3e 9f 07 13 3e a8 4b 96 bd
       -1.6750512 0.16577825 0.14358376 -0.07338649
0002a0 36 3d d1 bd 3f aa 08 40 d4 e2 87 3c 4d 43 95 bd
       -0.10216753 2.135391 0.016587652 -0.07288227
0002b0 b4 71 cf 3d 44 80 88 3e bd 62 ef 3f 3f 5c 8d 3d
       0.10129109 0.2666036 1.8702008 0.0690236
0002c0 f8 0d 70 3e 78 5a 9f 3d 4e 8e 8a bd 63 95 fe 3f
       0.23442829 0.077809274 -0.06765424 1.9889339
0002d0 d3 bd 37 3e 53 fe 87 3e 9c b3 3c 3d a2 fb 6d 3d
       0.17943506 0.2656122 0.046069726 0.058101304
0002e0 26 4c d3 bf 97 1e 9b bd 06 63 0c be 75 86 81 3e
       -1.6507614 -0.07574194 -0.1370965 0.25297895
0002f0 fe 12 0c 3d 3d 6a 87 bf b1 dd de 3d 27 d3 6d 3e
       0.0341978 -1.0579296 0.10882128 0.2322508
000300 7e 9f 05 3d 9b 9a 82 3c 37 70 bb bf 11 5b 29 3e
       0.032622807 0.015942862 -1.464362 0.16538645
000310 1c e3 05 be fa 9e 18 3e 93 ce 7c 3e 1b 3c e7 bf
       -0.13074917 0.14904395 0.24688177 -1.8065218
000320 26 b4 50 3e 98 dc 81 be ab 52 0a 3e 75 34 81 be
       0.20381221 -0.25363612 0.13508098 -0.25235334
000330 33 73 6a 3e 6e c5 00 3c 7e 41 b8 bc b1 65 7e 3c
       0.22895508 0.007859571 -0.022492167 0.015527175
000340 9c f6 80 be 11 fe c6 bd 4d e2 42 be 5e 09 9d 3d
       -0.25188148 -0.09716428 -0.1903164 0.07667802
000350 66 61 7e 3e fa b4 88 3e c1 ff 92 bf c9 ff 4d 3e
       0.24841842 0.26700574 -1.14843 0.20117106
000360 43 e0 55 3e 0e 83 a3 3e d6 e0 92 3d d2 10 cd 3f
       0.2088633 0.31935924 0.0717179 1.6020758
000370 90 1b 2d 3e 47 d2 a0 3d fe aa 8b bc b2 93 5e bd
       0.16905046 0.07852607 -0.017049309 -0.054340072
000380 22 b8 f5 3f f7 37 a3 3d 16 a3 ba bd 08 29 00 3e
       1.9196818 0.07969659 -0.091131374 0.12515652
000390 52 ca 89 3e 36 1a fd 3f 42 37 8e 3a e9 65 06 3d
       0.2691217 1.9773624 0.0010850208 0.032812033
0003a0 af af ac 3d 0e e9 2e 3e a7 e8 f9 bf dc d2 38 be
       0.084319465 0.17081091 -1.9524125 -0.18049186
0003b0 29 08 26 be 45 d1 94 be f8 4a 56 be 40 a0 6c 3c
       -0.1621405 -0.2906591 -0.20927036 0.014442503
0003c0 68 d0 4c be 72 de 7c be 18 97 2e be f4 ad ba bd
       -0.20001376 -0.24694231 -0.17049825 -0.0911521
0003d0 a0 f1 49 bc 7f cf 99 bd 2e f0 d4 3d a1 90 4f 3d
       -0.012325674 -0.0751028 0.10397373 0.05067504
0003e0 a1 95 c4 bd f8 28 bc bf c4 1e dc 3b e0 e0 9a 3e
       -0.09598852 -1.4700003 0.0067175347 0.3024969
0003f0 25 0d e2 3d 9a f5 d9 bc 38 6d e1 bf 12 a9 fa bd
       0.11037663 -0.02660637 -1.7611456 -0.12239279
